ppo_agent.pth (torch, 52882 bytes, 11 tensors)

critic.0.weight f4 [64, 14]
0	0xbe57d9ed	-0.21079226
1	0x3a91e033	0.0011129439
2	0x3ca524ac	0.020159088
3	0xbd8e6977	-0.069537096
4	0xbfacdfa5	-1.3505751
5	0xbeedf75c	-0.46477783
6	0xbe2c4b1f	-0.16825531
7	0xbe99b21f	-0.30018708
8	0xbcae4351	-0.021272333
9	0xbe1a4aac	-0.15067548
10	0xbd21c8c1	-0.039498094
11	0xbf0b78b4	-0.54481053
12	0xbe3cbc5b	-0.18431227
13	0x3d5c7fd1	0.053832833
14	0xbd161c55	-0.036648113
15	0x3ea4c4a7	0.32181284
16	0x3d24bb99	0.04021797
17	0xbdb7252f	-0.08942639
18	0x3e9a54b3	0.30142745
19	0x3d65f625	0.056142945
20	0x3e9f226f	0.31080958
21	0xbd8d4f26	-0.06899862
22	0x3ea56f56	0.32311505
23	0x3d964dc9	0.07339055
24	0xbe1f2f35	-0.15545352
25	0x3ea0da36	0.31416482
26	0x3d33bcab	0.0438811
27	0x3e2bd8cf	0.16781925
28	0x3e174d6a	0.14775625
29	0x3d398d51	0.045300785
30	0xbf3707f3	-0.71496505
31	0xbefe59ea	-0.49677974
32	0xbe4e797e	-0.20163533
33	0xbeb91e1d	-0.36155787
34	0xbe6f0f29	-0.23345627
35	0xbdbff266	-0.09372406
36	0x3d1380ae	0.03601139
37	0xbeb9f713	-0.36321315
38	0x3d8a6a51	0.067585595
39	0xbd196f8a	-0.037459888
40	0x3dbcfa1d	0.09227393
41	0xbe6a5a70	-0.22886062
42	0xbd101952	-0.035180397
43	0xbc507924	-0.012724195
44	0xbcc19d1e	-0.02363449
45	0xbd0295fe	-0.031881325
46	0xbeabc229	-0.3354657
47	0xbcdfb44a	-0.027307648
48	0xbbef8b66	-0.0073103188
49	0xbe10d6e1	-0.1414447
50	0xbf4a5fc1	-0.7905236
51	0xbf070062	-0.5273496
52	0x3baec833	0.005333924
53	0xbe83e2e2	-0.25759035
54	0x3c366da4	0.011134539
55	0xbe80f38c	-0.25185812
56	0xbee5d625	-0.44889942
57	0xbe7854e6	-0.24251136
58	0xbe32ba85	-0.17453964
59	0xbe0db848	-0.13839829
60	0xbe2f683b	-0.17129605
61	0xbe64b622	-0.22335103
62	0x3d846d89	0.06466205
63	0xbe935194	-0.28773177
64	0xbe648bb1	-0.22318913
65	0x3d4eb541	0.050465826
66	0x3deb1b8d	0.11479864
67	0xbd96d9fa	-0.073657945
68	0x3e42c853	0.1902173
69	0xbde4c78f	-0.11170875
70	0x3d58f981	0.05297232
71	0x3c70f099	0.0147058
72	0x3c491cd6	0.012274941
73	0x3f86d528	1.05338
74	0x3f43b6cd	0.76450807
75	0x3e8dc3f5	0.27688566
76	0x3cdcfb24	0.026975222
77	0x3e69a99d	0.22818609
78	0x3e018671	0.12648942
79	0x3e02a26d	0.12757273
80	0x3e0fdf12	0.14049938
81	0x3e17fc1f	0.1484227
82	0x3f065000	0.5246582
83	0x3e8452f7	0.25844547
84	0x3ea73819	0.32659987
85	0xbd36d916	-0.044640623
86	0xbcf40520	-0.0297876
87	0xbd4d6c3c	-0.05015205
88	0xbb8cf1d7	-0.0043012905
89	0x3d7d3bc3	0.06182457
90	0x3e012840	0.1261301
91	0x3d317e18	0.043333143
92	0x3f04f1ce	0.51931465
93	0x3d26ebf9	0.040752385
94	0x3ef414a5	0.47672
95	0x3ec0b28c	0.3763622
96	0x3e7607db	0.24026434
97	0xbdf60cb7	-0.12014144
98	0xbf007dd4	-0.50192
99	0xbea33642	-0.31877333
100	0xbe9d2ea5	-0.3069965
101	0xbe935cf4	-0.28781855
102	0xbe12eeb7	-0.14348875
103	0xbdb2b6bb	-0.08726259
104	0x3d935025	0.07193021
105	0x3dbadacd	0.09123764
106	0xbe4258a2	-0.18979123
107	0xbebf74d4	-0.3739382
108	0xbe722c57	-0.23649727
109	0x3cc78880	0.02435708
110	0x3d8dfd2d	0.06933055
111	0xbdc66f85	-0.096892394
112	0x3e5a25b4	0.21303445
113	0x3e9e32c7	0.30898115
114	0x3f0a721d	0.54080373
115	0x3e4a3130	0.19745326
116	0xbe174ec2	-0.14776137
117	0x3e583b84	0.21116453
118	0x3e84e08f	0.25952575
119	0x3ea23165	0.3167831
120	0x3e7487c4	0.23879915
121	0xbe1bd65c	-0.1521849
122	0x3e0d4fe7	0.13800012
123	0x3d846483	0.064644836
124	0xbe2d8293	-0.16944341
125	0x3eccec68	0.40024114
126	0xbd16138f	-0.036639746
127	0x3b45197d	0.0030075007
128	0x3b83ac26	0.0040183244
129	0xbf4a7c2e	-0.79095733
130	0xbf53a3af	-0.82671636
131	0xbea3c12f	-0.31983325
132	0xbe83d146	-0.257456
133	0xbe60fc71	-0.21971299
134	0x3ccf2c2a	0.025289614
135	0xbd4080a1	-0.04699767
136	0xbeae357d	-0.34025183
137	0xbddd93ff	-0.10819244
138	0xbe4502ac	-0.192393
139	0xbe8da18e	-0.2766232
140	0x3d01cc31	0.031688873
141	0xbd01c6fb	-0.031683903
142	0xbc9db9ae	-0.019253578
143	0xbc0f0f84	-0.008731727
144	0xbd875d62	-0.06609608
145	0x3c45966e	0.012059791
146	0xbb6da47b	-0.0036261368
147	0xbc2d3078	-0.010570638
148	0x3d3a670a	0.045508422
149	0x3d2161dc	0.039399967
150	0x3e84cbaa	0.25936633
151	0x3fc44d28	1.5336046
152	0x3de9738a	0.113989905
153	0xbd1afd12	-0.037839003
154	0x3eb824c4	0.3596555
155	0x3ec0b9fb	0.37641892
156	0x3d378b42	0.04481054
157	0x3ddf6e30	0.109096885
158	0x3df363e9	0.11884291
159	0xbc860915	-0.016361753
160	0x3dcf1ce5	0.10112933
161	0x3ee69c87	0.45041296
162	0x3e9377bf	0.28802297
163	0x3db1aeac	0.08675894
164	0x3d582c46	0.052776597
165	0x3d5b0971	0.0534758
166	0x3dc9bce8	0.09850484
167	0x3eae3764	0.34026635
168	0x3ecab0ab	0.39587912
169	0x3e696fe5	0.2279659
170	0x3e8a1a72	0.269733
171	0x3e101fc4	0.14074618
172	0x3ed6be1d	0.4194192
173	0x3ddcd7f2	0.10783376
174	0xbdcd8a2e	-0.10036121
175	0x3da066bd	0.07832096
176	0xbd17c8b2	-0.037056632
177	0x3de466bf	0.1115241
178	0x3d8fb6ea	0.0701731
179	0xbd54d345	-0.051959295
180	0x3e28f19d	0.16498418
181	0x3e0762de	0.13221309
182	0x3e228137	0.15869604
183	0xbe206866	-0.15664825
184	0xbe5b68e2	-0.21426728
185	0xbcebf001	-0.028800966
186	0xb9867882	-0.00025648257
187	0x3cc3a779	0.023883568
188	0x3caeac0c	0.021322273
189	0xbd98d40e	-0.07462321
190	0xbf1c2faf	-0.6101026
191	0xbf2585b7	-0.6465716
192	0xbe61bfe8	-0.22045863
193	0xbcc56c83	-0.024099594
194	0x3da5dd00	0.08098793
195	0xbf0297ca	-0.5101286
196	0x3ecd1853	0.4005762
197	0x3ee22b30	0.44173574
198	0x3e1724ab	0.14760081
199	0x3d5f5144	0.05452086
200	0x3d5863b1	0.052829448
201	0x3c795d2d	0.015219969
202	0x3e9b19d5	0.30293146
203	0x3db4b190	0.0882293
204	0xbd84ba0a	-0.06480797
205	0x3ee6d73b	0.45086083
206	0x3c4e65a2	0.012597473
207	0x3da6a3b1	0.081366904
208	0x3dfe0c1e	0.12404655
209	0x3e36f7e8	0.17868006
210	0xbcbb9965	-0.022900293
211	0x3c4ddebe	0.012565313
212	0x3baca1a7	0.005268294
213	0xbc0d1339	-0.00861054
214	0x3b8e5321	0.004343406
215	0xbb85a6fa	-0.004078743
216	0xbca75daf	-0.020430414
217	0xbc95e73c	-0.018298738
218	0xbd1d49ea	-0.038400568
219	0xbd1d06d3	-0.038336586
220	0xbe15efdb	-0.14642279
221	0x3fd9af4f	1.7006625
222	0xbdaa4ffd	-0.08316038
223	0x3eb7fc2e	0.35934585
224	0x3d7054aa	0.058674492
225	0xbdf2bd27	-0.11852484
226	0xbea4ebd7	-0.32211182
227	0xbe9f72df	-0.31142327
228	0xbf292751	-0.6607562
229	0x3d915123	0.07095554
230	0x3bdb6a78	0.0066960417
231	0xbd8966f2	-0.067090884
232	0xbe448723	-0.19192176
233	0x3de1c48d	0.11023817
234	0xbd498ef3	-0.049208593
235	0xbe5c3dd2	-0.21507958
236	0xbd8e528a	-0.06949337
237	0x3dee9c20	0.11650872
238	0xbcecd7d5	-0.02891151
239	0xbd89638d	-0.06708441
240	0xbd252411	-0.0403176
241	0x3f44bf24	0.7685416
242	0x3f3c5578	0.73567915
243	0x3d87dd31	0.06633986
244	0xbd8f36f4	-0.06992903
245	0x3ec9b965	0.39399257
246	0xbcccba4a	-0.024991173
247	0x3d670aef	0.05640691
248	0x3e69f459	0.22847117
249	0xbe0626c1	-0.13100721
250	0xbe4863b2	-0.1956928
251	0x3ed04e65	0.4068481
252	0xbd497604	-0.049184814
253	0xbc2f7e9b	-0.010711337
254	0xbc33800f	-0.0109558245
255	0xbf4f3765	-0.809439

critic.0.bias f4 [64]
0	0x3f8d9a03	1.1062626
1	0xbf37d224	-0.71805024
2	0xbe35c0aa	-0.17749277
3	0x3f79c8c7	0.97571987
4	0xbf9d8588	-1.2306376
5	0xbf9b2ca8	-1.2123003
6	0xbf6393a8	-0.8889718
7	0xbf86f943	-1.0544819
8	0x3f6d20cd	0.92628175
9	0x3f9c279e	1.219959
10	0xbf990e13	-1.195742
11	0x3f8f4b12	1.1194785
12	0x3fa065bb	1.2531046
13	0xbe2d2114	-0.1690715
14	0x3f9e52de	1.2369039
15	0xbf97dacb	-1.1863645
16	0xbedbbda6	-0.42918128
17	0xbf887e52	-1.066355
18	0x3f92f474	1.1480851
19	0xbe5ecdb2	-0.21758154
20	0x3f337aec	0.7010944
21	0xbee96efd	-0.4559249
22	0xbf898d91	-1.0746328
23	0x3f85921a	1.0435212
24	0x3f36ea6f	0.7145147
25	0xbfa80e55	-1.3129374
26	0xbf5efd4e	-0.8710526
27	0xbe99a111	-0.30005696
28	0xbf459f74	-0.7719643
29	0x3f064ed5	0.5246404
30	0xbf519157	-0.81862396
31	0x3fa05e02	1.2528689
32	0xbf8301c3	-1.0234913
33	0x3f830f54	1.0239053
34	0x3f50acfa	0.8151394
35	0x3f689d40	0.90864944
36	0x3f42bf23	0.760729
37	0xbf7fba72	-0.9989387
38	0x3f94a0ff	1.1611632
39	0xbf2817fc	-0.656616
40	0x3f37e0a4	0.7182715
41	0xbf57cbde	-0.8429545
42	0xbf7c8052	-0.986333
43	0x3f716f5c	0.94310546
44	0x3f264bfa	0.6495968
45	0x3f6444fe	0.89167774
46	0x3efbe944	0.49201405
47	0xbf93f4da	-1.1559098
48	0xbf8e72f1	-1.1128827
49	0x3fa6c3ee	1.3028543
50	0x3f82b754	1.0212197
51	0x3f8577fc	1.0427241
52	0x3f427ca8	0.7597146
53	0xbf6b8c2b	-0.92010754
54	0xbf7843de	-0.9697856
55	0xbf8468ae	-1.0344446
56	0x3f62b581	0.88558203
57	0x3f8f448f	1.1192797
58	0xbf817d8e	-1.0116441
59	0x3f904bdd	1.1273152
60	0xbfaec060	-1.3652458
61	0x3f69faae	0.9139813
62	0x3f767b0a	0.9628149
63	0xbf463223	-0.7742025

critic.2.weight f4 [64, 64]
0	0x3da9769d	0.08274577
1	0x3e7c9000	0.24664307
2	0xbe99a913	-0.30011806
3	0x3e8f2e11	0.27964833
4	0xbe8c84a8	-0.2744496
5	0xbdd55153	-0.10415902
6	0x3e0c2b29	0.1368834
7	0xbdff9eb7	-0.12481444
8	0x3e8656ec	0.2623819
9	0x3e24b3e0	0.16084242
10	0xbe62cf11	-0.22149302
11	0x3ed508d4	0.41608298
12	0x3ed970b0	0.42468786
13	0xbe86ab5c	-0.26302612
14	0x3e2b1785	0.1670819
15	0xbe1a498f	-0.15067123
16	0xbde7e140	-0.1132226
17	0xbe8ab80a	-0.27093536
18	0x3e1c2db1	0.15251805
19	0xbd487b00	-0.048945427
20	0x3ed251b8	0.4107797
21	0xbda9527e	-0.08267687
22	0xbdd37777	-0.103255205
23	0x3edafcd8	0.4277103
24	0x3d4c31ee	0.049852304
25	0xbe9b16dd	-0.3029088
26	0x3e49dabd	0.19712348
27	0xbe1d336f	-0.15351652
28	0xbe2e8661	-0.17043449
29	0xbca3de48	-0.020003453
30	0xbece093d	-0.40241423
31	0x3e4651fd	0.19367214
32	0xbe148f3a	-0.14507762
33	0x3e903bd8	0.28170657
34	0x3dd03e10	0.101680875
35	0x3eb09077	0.34485218
36	0x3e80866b	0.25102553
37	0xbefab846	-0.48968714
38	0x3f113c24	0.5673239
39	0x3e02bc83	0.12767224
40	0x3e656bb6	0.2240437
41	0x3e847676	0.2587163
42	0xbedf7aee	-0.43648475
43	0x3ea882cb	0.32912287
44	0x3f1b480c	0.6065681
45	0x3ebbfcbb	0.36716256
46	0x3e88bca9	0.26706436
47	0xbe4f2d4b	-0.20232122
48	0x3bcaa2b3	0.006183946
49	0x3df4e987	0.11958604
50	0x3ebc3922	0.3676234
51	0x3ed503b3	0.41604385
52	0x3e0ff2e3	0.14057498
53	0xbc7e1765	-0.015508507
54	0xbe58da6b	-0.2117707
55	0x3d7e3bc6	0.062068723
56	0x3ed53a63	0.41646108
57	0x3d3d7720	0.046256185
58	0xbe9948e1	-0.29938415
59	0x3e881bfa	0.26583844
60	0xbea58a18	-0.3233192
61	0x3ecbba54	0.39790595
62	0x3e4e0f6f	0.20123075
63	0xbcde575f	-0.027141271
64	0x3f4daaea	0.8033892
65	0xbe3f00db	-0.1865267
66	0x3e092c14	0.1339572
67	0x3ebba87e	0.36651987
68	0xbe581b99	-0.21104278
69	0xbe9e81b4	-0.3095833
70	0xbe107b98	-0.14109647
71	0xbec4727f	-0.38368604
72	0x3e3e9b37	0.18613897
73	0x3f4226cc	0.7584045
74	0xbd79f961	-0.061028842
75	0x3dcffc54	0.1015555
76	0xbc78a1a1	-0.015175254
77	0x3d87b5ff	0.0662651
78	0x3ecd929d	0.4015092
79	0xbf30c89c	-0.69056106
80	0xbd513b16	-0.05108174
81	0xbe9d0009	-0.3066409
82	0x3ed8ab7f	0.4231834
83	0x3e22e463	0.15907435
84	0x3daa3dcd	0.08312569
85	0x3d18e5f2	0.037328668
86	0xbeaabc48	-0.33346772
87	0x3e47b2f9	0.19501866
88	0x3edfbcc1	0.43698695
89	0xbed080ac	-0.4072317
90	0xbeecb594	-0.46232283
91	0x3e1af30f	0.15131782
92	0xbe8d9539	-0.2765291
93	0x3e379109	0.1792642
94	0xbebcc532	-0.36869198
95	0x3de9eb0c	0.11421785
96	0xbe23c4c5	-0.1599303
97	0x3e1214f3	0.14265804
98	0x3eb7b25e	0.3587827
99	0x3e9caa30	0.30598593
100	0x3e80c675	0.2515141
101	0xbee488ca	-0.44635612
102	0xbd2e44e1	-0.042546157
103	0xbe61bb8a	-0.22044197
104	0x3e1b157c	0.15144914
105	0xbebd1269	-0.36928108
106	0xbed31fce	-0.41235203
107	0x3ec131bb	0.37733254
108	0x3e679821	0.22616626
109	0x3e35f464	0.17769009
110	0x3e838dbc	0.25694072
111	0xbefaf1ac	-0.49012506
112	0xbf18bf4c	-0.59666896
113	0x3de49e13	0.11162963
114	0xbcb14c0c	-0.021642707
115	0x3f016c53	0.50555915
116	0x3e2d8ade	0.16947505
117	0xbf51c270	-0.81937313
118	0xbea4a25d	-0.32155123
119	0xbdb35555	-0.0875651
120	0x3e9c29bf	0.305006
121	0x3de7a1bb	0.113101445
122	0xbe7bba3b	-0.2458276
123	0xbbdba323	-0.006702797
124	0xbe97524e	-0.2955498
125	0x3f1507d7	0.5821509
126	0x3e5c0ca2	0.21489194
127	0x3d4e1ad1	0.050318543
128	0xbd704a47	-0.058664586
129	0x3eabf49d	0.33585063
130	0x3eaba7c4	0.33526433
131	0x3b686d53	0.0035465553
132	0x3ee6c264	0.45070183
133	0xbd089769	-0.03334752
134	0x3e9eeb5b	0.31038937
135	0x3da96e19	0.082729526
136	0xbe8d4ef5	-0.27599302
137	0xbe81fd4c	-0.25388563
138	0x3d6e782f	0.058220085
139	0xbd7d35b3	-0.06181879
140	0xbec2e714	-0.38066924
141	0x3eb05cd2	0.34445816
142	0xbf0e95bc	-0.55697227
143	0x3e98a813	0.2981573
144	0x3ee9beb8	0.4565332
145	0x3dce25bd	0.10065792
146	0xbe95ce6b	-0.29259047
147	0x3edbc9d4	0.4292742
148	0xbec0bffa	-0.37646466
149	0xbd8573b6	-0.06516211
150	0x3ea11619	0.31462172
151	0xbea22516	-0.3166892
152	0xbde3186b	-0.11088642
153	0xbe55a3f8	-0.2086333
154	0x3ec72b0a	0.38900024
155	0x3eb7b717	0.35881874
156	0x3cedc0a3	0.02902252
157	0xbe805304	-0.25063336
158	0x3e4a889c	0.19778675
159	0xbef3d6fb	-0.47624955
160	0xbc59e31c	-0.013298776
161	0xbea3a750	-0.31963587
162	0xbe1f618b	-0.15564553
163	0xbe32e50d	-0.17470188
164	0xbd15ab79	-0.036540482
165	0x3ea2e498	0.31815028
166	0xbed1850f	-0.40921828
167	0x3e531bfb	0.20616142
168	0xbc9e81a2	-0.019348923
169	0x3e7c0fbe	0.2461538
170	0x3eed9c7b	0.46408448
171	0xbea98faa	-0.3311742
172	0x3c939b1e	0.018018302
173	0xbd845dbf	-0.06463193
174	0xbf168a1e	-0.588045
175	0x3eabc291	0.3354688
176	0x3eaca2d1	0.3371797
177	0xbe66e9aa	-0.22550073
178	0xbf0bdd5b	-0.54634637
179	0xbe8a8598	-0.2705505
180	0x3d78a221	0.060701493
181	0x3e16fe19	0.14745368
182	0x3e90b430	0.28262472
183	0x3de1fb22	0.11034228
184	0xbe9f44c9	-0.31107166
185	0xbde4d19f	-0.111727946
186	0x3ec87a80	0.3915596
187	0xbeb867ab	-0.36016592
188	0xbcac6dec	-0.021048509
189	0xbe33bf8d	-0.1755354
190	0x3c9769f9	0.018483149
191	0x3e86303d	0.26208678
192	0x3ed687e9	0.41900566
193	0xbdaf6fed	-0.0856627
194	0xbe968a91	-0.29402593
195	0x3d0c9d0e	0.034329467
196	0xbe8dd3fd	-0.27700797
197	0xbe1f47cd	-0.15554734
198	0x3e8e3373	0.27773628
199	0xbe91b050	-0.28454828
200	0x3e4b8baa	0.19877496
201	0xbcf71b0b	-0.030164262
202	0xbe73a30e	-0.23792669
203	0x3ed034d4	0.40665305
204	0x3ecbff29	0.3984311
205	0xbe2495b1	-0.16072728
206	0x3d9a216d	0.07525907
207	0xbe225588	-0.1585294
208	0xbc8a3890	-0.016872674
209	0xbe498ab4	-0.19681817
210	0xbe04aac2	-0.12955764
211	0xbe8103f4	-0.25198328
212	0x3def495c	0.11683914
213	0x3d84b045	0.06478933
214	0xbe5dc011	-0.21655299
215	0x3f1d8a9e	0.6153964
216	0x3eb6122c	0.3556074
217	0xbdd6f69e	-0.10496257
218	0xbe8796c9	-0.26482227
219	0xbdc38279	-0.0954637
220	0xbe3dd48f	-0.18538116
221	0x3f12809d	0.572275
222	0xbd189c45	-0.037258405
223	0x3e8db34c	0.27675855
224	0xbe6b5f82	-0.22985652
225	0x3eff7a53	0.49898013
226	0xbd0daef0	-0.03459066
227	0x3d161ee7	0.036650565
228	0x3e4c384b	0.19943349
229	0xbeb6dfc5	-0.35717598
230	0x3ec31c14	0.3810736
231	0xbece1ed5	-0.40257898
232	0xbe5e2b4c	-0.21696204
233	0xbe76b589	-0.24092688
234	0xbe3cdfbc	-0.18444723
235	0xbd870d28	-0.06594306
236	0x3ddfcbbc	0.10927531
237	0xbd74eef1	-0.059798185
238	0x3f00acc0	0.50263596
239	0xbc79a997	-0.015238187
240	0xbe43a0f8	-0.19104373
241	0x3e9bf2ad	0.30458584
242	0x3e0e432f	0.13892816
243	0x3e314c87	0.17314349
244	0x3d83e27d	0.064396836
245	0xbe04d0e1	-0.12970306
246	0xbe307bdf	-0.17234753
247	0xbd9c671f	-0.07636856
248	0x3e51b654	0.20479709
249	0xbc216aca	-0.009852121
250	0xbe9ba2cb	-0.3039764
251	0x3eac5148	0.33655763
252	0xbf47c22c	-0.7803066
253	0x3e66472c	0.22488087
254	0x3e369bd5	0.17832883
255	0xbea39f9b	-0.31957707

critic.2.bias f4 [64]
0	0x3eaa687a	0.33282834
1	0x3e4b027c	0.19825166
2	0xbe88cacb	-0.2671722
3	0x3eb4f41c	0.3534249
4	0x3e87989b	0.26483616
5	0x3e946ff5	0.28991666
6	0x3eb58de9	0.3545983
7	0xbe9bfe5e	-0.30467504
8	0x3e5d305c	0.21600479
9	0x3edc9c59	0.43088034
10	0x3e69250b	0.22768037
11	0xbec2ee67	-0.38072512
12	0x3e9773c5	0.29580513
13	0x3e82266e	0.25419945
14	0xbec28f5d	-0.38000003
15	0x3eb89e2c	0.36058176
16	0x3e6f3007	0.23358165
17	0x3eb5ad71	0.35483888
18	0xbea0dab6	-0.31416863
19	0xbe8b5701	-0.27214816
20	0x3e6110b1	0.21979024
21	0x3e8975d8	0.2684772
22	0xbe852f61	-0.2601271
23	0x3ee31dac	0.44358575
24	0xbe5ad273	-0.21369343
25	0xbe8cd049	-0.2750266
26	0xbead8f34	-0.33898318
27	0xbe95e6fd	-0.29277793
28	0x3ea36508	0.31913018
29	0x3e7d139c	0.24714512
30	0xbe8e3acc	-0.27779233
31	0xbec28cad	-0.37997952
32	0xbe8475e6	-0.258712
33	0x3ebefdf4	0.37303126
34	0xbeac0b5f	-0.33602425
35	0xbe8fb551	-0.2806802
36	0xbe919a1c	-0.2843789
37	0xbe850b23	-0.2598506
38	0xbed63361	-0.41836074
39	0xbed95321	-0.42446235
40	0x3ec37026	0.381715
41	0xbe9d8bd1	-0.30770734
42	0x3e995902	0.2995072
43	0xbe986c44	-0.297701
44	0xbeb4087d	-0.35162726
45	0xbe575154	-0.21027118
46	0xbe466464	-0.19374233
47	0xbeb10a87	-0.34578344
48	0xbe803576	-0.25040787
49	0x3e9dd567	0.30826876
50	0xbeb0e575	-0.34550062
51	0xbece4c42	-0.40292555
52	0xbe59e79d	-0.2127976
53	0xbe8b2c3b	-0.27182183
54	0x3ed9cb7b	0.42538056
55	0xbe97f522	-0.2967921
56	0x3e924ebd	0.28575698
57	0x3ecb136e	0.3966326
58	0x3e779f4d	0.24181862
59	0x3ed26ab5	0.41097036
60	0xbe07b27c	-0.1325168
61	0x3eaf019f	0.34180924
62	0xbea0c27f	-0.3139839
63	0x3e65c076	0.224367

critic.4.weight f4 [1, 64]
0	0x4218690a	38.102577
1	0x42187d9c	38.122665
2	0xc21806ce	-38.006645
3	0x42180552	38.005196
4	0x42184663	38.068737
5	0x421854c9	38.082798
6	0x42180f28	38.0148
7	0xc218816d	-38.126392
8	0x42183864	38.05507
9	0x42186ca3	38.10609
10	0x4217a930	37.915222
11	0xc218c5d8	-38.193207
12	0x4218e424	38.222794
13	0x4218afae	38.171562
14	0xc218cc9e	-38.19982
15	0x4217fd2c	37.99724
16	0x42181fdb	38.03111
17	0x421822d4	38.03401
18	0xc21826ff	-38.038082
19	0xc2184c5b	-38.074566
20	0x42185c21	38.08997
21	0x4217fcaa	37.996742
22	0xc218799b	-38.118755
23	0x4218573d	38.085194
24	0xc2184eca	-38.076942
25	0xc2188f4f	-38.13995
26	0xc218a863	-38.16444
27	0xc21842e7	-38.065334
28	0x4218c456	38.191734
29	0x42185db2	38.0915
30	0xc218b9bf	-38.181393
31	0xc21857f0	-38.085876
32	0xc21866e5	-38.100483
33	0x4217f54b	37.989544
34	0xc218b1af	-38.17352
35	0xc2187472	-38.113716
36	0xc219990f	-38.39947
37	0xc2181939	-38.02463
38	0xc217efbf	-37.984127
39	0xc2180526	-38.005028
40	0x421890ed	38.14153
41	0xc219498e	-38.32183
42	0x421889a1	38.134403
43	0xc218c722	-38.194466
44	0xc218b854	-38.180008
45	0xc2181d34	-38.02852
46	0xc2186d1b	-38.10655
47	0xc2184735	-38.06954
48	0xc2188b76	-38.136192
49	0x4219db65	38.464252
50	0xc2181617	-38.021572
51	0xc218b2e5	-38.1747
52	0xc2188cb9	-38.137424
53	0xc217eea6	-37.983055
54	0x42184dce	38.07598
55	0xc2183170	-38.04828
56	0x42188204	38.12697
57	0x4218dde4	38.21669
58	0x421815dc	38.021347
59	0x42180388	38.00345
60	0xc218d65f	-38.209347
61	0x4218601d	38.09386
62	0xc2180dd5	-38.013508
63	0x421837d3	38.054516

actor.0.weight f4 [64, 14]
0	0xbd570865	-0.05249824
1	0x3e30735f	0.1723151
2	0x3dc664cf	0.096871965
3	0xbe233ae2	-0.15940431
4	0xbe834818	-0.2564094
5	0xbe8f23c2	-0.2795697
6	0xbebe0dea	-0.3711999
7	0xbeb7f257	-0.35927078
8	0xbe85458e	-0.2602963
9	0xbe2881ec	-0.16455811
10	0x3e14322e	0.14472267
11	0xbb3c7a21	-0.0028759318
12	0x3ee8daf5	0.4547955
13	0xbe30262c	-0.17202061
14	0x3e2abd3c	0.1667375
15	0x3e7ed1d1	0.24884726
16	0x3d16cbff	0.03681564
17	0x3e198d8e	0.14995405
18	0x3e506389	0.2035047
19	0x3e727e6a	0.23681036
20	0xbe3a4705	-0.18191154
21	0x3df1b601	0.118022926
22	0x3e3c171c	0.1836819
23	0x3ea0952b	0.31363806
24	0xbe749b50	-0.23887372
25	0x3e1aaa34	0.1510399
26	0x3e7e926b	0.24860542
27	0x3dcdc8a8	0.10048038
28	0xbd1b9db0	-0.03799218
29	0xbeb0a86f	-0.34503505
30	0x3e9b6f78	0.3035848
31	0xbe1a776a	-0.15084615
32	0xbe17df8a	-0.14831367
33	0xbdf31aa4	-0.11870316
34	0xba9cf342	-0.0011974352
35	0xbebb3d9c	-0.36570442
36	0xbe860620	-0.26176548
37	0xbe3b4249	-0.18287005
38	0x3ea4a6a2	0.3215838
39	0xbe54f5b3	-0.20796852
40	0xbdaf8b0f	-0.08571445
41	0xbd0307aa	-0.03198973
42	0x3dd1c094	0.102418095
43	0xbd66bd10	-0.056332648
44	0xbebc64e8	-0.36795735
45	0xbdd0e964	-0.10200766
46	0x3d11314e	0.03544741
47	0xbd704542	-0.0586598
48	0xbe4b38ec	-0.19845933
49	0xbe210eb5	-0.15728267
50	0xbdfce4d2	-0.123483315
51	0x3e39418a	0.18091407
52	0x3e5f7342	0.21821311
53	0xbcb39354	-0.021920837
54	0xbe4f31c9	-0.20233835
55	0x3de174d7	0.110086136
56	0xbe63687e	-0.2220783
57	0xbeec1d7a	-0.4611624
58	0xbe201370	-0.15632415
59	0xbe161ff7	-0.14660631
60	0xbe93b6d9	-0.2885044
61	0xbe9239bb	-0.2855967
62	0xbe5145e4	-0.20436817
63	0x3e85504e	0.2603783
64	0x3d028ebc	0.031874403
65	0x3e2387fb	0.15969841
66	0xbc93de7a	-0.018050421
67	0x3e695d71	0.22789551
68	0xbdaf4a70	-0.0855912
69	0xbce617c2	-0.0280875
70	0xbea1bf90	-0.31591463
71	0xbe8a9b33	-0.27071533
72	0xbe1e2b1e	-0.15446135
73	0xbe50da7d	-0.20395847
74	0x3ca418ec	0.020031415
75	0xbe0872c1	-0.13325025
76	0x3eb98ebd	0.36241713
77	0x3beb0ed4	0.0071733985
78	0x3e6e100d	0.2324831
79	0xbe9fe3f8	-0.31228614
80	0x3da90568	0.08252984
81	0xbdc4da0e	-0.09611903
82	0x3e4826ee	0.195461
83	0xbe4ad89a	-0.1980919
84	0xbe32b136	-0.17450413
85	0x3d0bf8a3	0.034172665
86	0x3dc36ccb	0.09542235
87	0xbe309afe	-0.17246625
88	0x3db0381b	0.08604451
89	0xbebf4dee	-0.37364143
90	0xbeb97fd4	-0.36230338
91	0xbc9ddbf9	-0.01926993
92	0xbd589e65	-0.05288543
93	0x3dc8e8e1	0.09810043
94	0xbe913e29	-0.28367737
95	0xbdee0470	-0.1162194
96	0xbe0aa263	-0.13538508
97	0xbe663aa2	-0.22483304
98	0x3e0a5950	0.13510633
99	0x3baaca25	0.005212086
100	0xbe370a6f	-0.17875074
101	0x3e66ac2a	0.22526613
102	0xbe7b39d6	-0.24533781
103	0x3e170724	0.14748818
104	0x3e74ea88	0.23917592
105	0xbe0bbac2	-0.13645461
106	0x3dc099b2	0.09404315
107	0x3e67f0e0	0.2265048
108	0xbe225434	-0.15852433
109	0x3dd9ea97	0.106404476
110	0xbd18eab4	-0.037333205
111	0x3d514d76	0.051099263
112	0xbba96d76	-0.0051705195
113	0x3e89383f	0.26800725
114	0x3ed0a4c3	0.40750703
115	0xbe091553	-0.13387041
116	0x3dcf5e65	0.10125426
117	0xbe514d61	-0.20439674
118	0x3dfeaa67	0.124348454
119	0xbe84eced	-0.2596201
120	0x3d6db1df	0.05803096
121	0x3e8a4efa	0.2701338
122	0x3e8c1028	0.27356076
123	0x3e23853e	0.15968797
124	0x3d02eece	0.031966023
125	0xbc2e8bea	-0.010653475
126	0x3e49f406	0.19721994
127	0xbe2673c4	-0.16255099
128	0xbea9d07e	-0.3316688
129	0xbdfaaa10	-0.12239468
130	0xbe7004d2	-0.23439339
131	0xbebb7fa9	-0.36620834
132	0xbeb905c0	-0.361372
133	0xbde26142	-0.11053707
134	0x3e20ecb7	0.157153
135	0xbcc08852	-0.023502503
136	0xbd37b3d2	-0.044849224
137	0xbd2f6ee4	-0.042830363
138	0xbe78b79c	-0.24288791
139	0xbe174cc5	-0.14775379
140	0x3d309055	0.043106396
141	0xbdc67625	-0.09690503
142	0x3de371d8	0.11105698
143	0xbe757255	-0.23969395
144	0xbd8e1c08	-0.0693894
145	0xbe909373	-0.28237495
146	0xbceb6d1b	-0.028738549
147	0x3d3425ad	0.043981243
148	0x3eb0492d	0.3443083
149	0xbd98c718	-0.07459849
150	0xbd8dd9ae	-0.06926285
151	0x3ef5c26b	0.47999892
152	0xbeb7e6a1	-0.35918143
153	0xbe2cdb40	-0.16880512
154	0x3da211af	0.07913529
155	0xbe27364f	-0.16329311
156	0x3e755ef2	0.23962
157	0x3df2ef2a	0.11862023
158	0x3e320eca	0.17388454
159	0x3e70250e	0.23451635
160	0x3cc0a9f2	0.023518536
161	0x3e36b4b0	0.17842364
162	0x3e0d070b	0.13772218
163	0x3e452261	0.19251396
164	0x3e1a8191	0.15088488
165	0x3c414c7e	0.011798022
166	0xbe22f805	-0.15914924
167	0xbe61a8ac	-0.22037
168	0x3e299bb7	0.16563307
169	0xbd75bcb4	-0.059994414
170	0x3e44d624	0.19222313
171	0x3d08989b	0.03334866
172	0x3d7ba81e	0.061439626
173	0xbe82ae55	-0.2552363
174	0x3e9f9ad1	0.31172803
175	0xbc7745da	-0.0150923375
176	0x3e293efc	0.16527933
177	0xbe7349af	-0.23758577
178	0xbe4b1de8	-0.19835627
179	0x3eb99f2c	0.3625425
180	0xbc5c01e8	-0.013428189
181	0xbe8a5892	-0.270207
182	0xbee65357	-0.44985458
183	0xbe040a84	-0.12894636
184	0x3cd74d9b	0.026282122
185	0xbe64e5fd	-0.22353359
186	0xbe9d345a	-0.30704004
187	0x3cd2b031	0.02571878
188	0xbeb05cf5	-0.3444592
189	0xbd99903a	-0.07498212
190	0x3e9d9567	0.30778047
191	0xbd9972e0	-0.07492614
192	0xbea6bd52	-0.32566315
193	0xbeb6d9cf	-0.3571305
194	0xbd298085	-0.04138233
195	0xbe0346d6	-0.1281999
196	0x3e673441	0.22578527
197	0x3dd04149	0.10168702
198	0x3f113422	0.56720173
199	0xbd4f5180	-0.050614834
200	0x3d982e55	0.07430712
201	0x3d971fc0	0.07379103
202	0x3e9d86f0	0.30767012
203	0x3e98f94a	0.29877692
204	0xbc3457c4	-0.011007253
205	0x3e182995	0.14859612
206	0x3e806979	0.2508047
207	0xbe135c36	-0.14390644
208	0x3e31a827	0.17349301
209	0x3d82067e	0.063488945
210	0x3cc4ddd3	0.024031555
211	0xbba76ceb	-0.0051094196
212	0xbdcdce98	-0.1004917
213	0x3ed2cfa7	0.4117405
214	0xbe203318	-0.1564449
215	0xbe8a37ab	-0.26995596
216	0xbd90b8d8	-0.07066506
217	0x3dd6fb39	0.10497136
218	0x3dab56ce	0.08366166
219	0xbddb4964	-0.107073575
220	0xbdcebdf8	-0.100948274
221	0x3df4bacb	0.119496904
222	0xbd69dbba	-0.057094313
223	0xbe142960	-0.14468908
224	0x3cb331fd	0.021874422
225	0xbe840534	-0.2578522
226	0xbe03d703	-0.12874989
227	0x3e551a65	0.2081085
228	0xbe9f03df	-0.3105764
229	0x3d550b5d	0.05201279
230	0x3e9ece31	0.31016687
231	0xbe0f2f8c	-0.13982981
232	0x3db9f782	0.090804115
233	0xbe199bd1	-0.15000845
234	0x3e8986d3	0.26860675
235	0x3dde2f69	0.108488865
236	0x3d6a6aea	0.057230867
237	0xbcd8530e	-0.026406791
238	0x3e588104	0.21142966
239	0x3e07ad45	0.13249691
240	0xbe077a14	-0.13230163
241	0xbec8d53f	-0.39225194
242	0xbe56616c	-0.20935601
243	0xbd77a73c	-0.06046222
244	0xbe433f64	-0.1906715
245	0x3ea3355b	0.31876644
246	0xbdf32a39	-0.11873288
247	0xbd3355ad	-0.04378288
248	0x3d818617	0.06324404
249	0x3ecee869	0.4041169
250	0x3e585634	0.21126634
251	0xbe3eabb4	-0.18620187
252	0xbccc7602	-0.024958614
253	0xbdfb1026	-0.122589394
254	0xbe0ed025	-0.13946588
255	0x3bd4af16	0.0064905984

actor.0.bias f4 [64]
0	0x3e5d76e4	0.21627384
1	0x3e8c3b88	0.2738917
2	0xbee5d7b1	-0.44891122
3	0x3ef2f050	0.4744897
4	0x3e2edc2f	0.17076181
5	0x3ec1ab6d	0.378261
6	0xbd9e8966	-0.077410504
7	0xbe1e3788	-0.15450871
8	0x3df47a18	0.1193735
9	0x3e1f3ce5	0.15550573
10	0xbc1162a9	-0.00887362
11	0x3e8050a9	0.2506154
12	0xbe00c60f	-0.12575553
13	0xbe832a12	-0.25618035
14	0xbeb4c0cd	-0.35303345
15	0xbca4a70a	-0.020099182
16	0x3eddf4ae	0.43350738
17	0xbe7fc48c	-0.2497732
18	0xbf1aeb33	-0.60515136
19	0x3ed11ce2	0.40842348
20	0xbe06ba65	-0.13157041
21	0xbf105b78	-0.5638957
22	0x3eaad0b1	0.33362344
23	0xbd2bb03a	-0.04191611
24	0xbe23f333	-0.16010742
25	0xbd896488	-0.06708628
26	0x3f7015e7	0.9378342
27	0x3e5f66dd	0.21816583
28	0x3e22bba8	0.15891898
29	0xbe06d0ac	-0.1316554
30	0x3e2318e0	0.15927458
31	0x3f26163f	0.64877695
32	0x3f31bad5	0.6942571
33	0xbee1b849	-0.4408591
34	0x3f328a49	0.69742256
35	0x3ebb14e7	0.36539385
36	0x3ee1a338	0.4406984
37	0xbeba2fc5	-0.3636457
38	0xbd01a398	-0.031650156
39	0x3e16c75c	0.14724487
40	0x3ebd7da5	0.37009922
41	0xbeaeb712	-0.34124047
42	0x3c20564d	0.009786201
43	0x3d5a97d7	0.053367462
44	0x3e37a348	0.1793338
45	0x3d56dc02	0.05245591
46	0x3d58d035	0.052932937
47	0xbc992bf6	-0.01869772
48	0xbec5ed14	-0.3865744
49	0xbe9c833d	-0.30568877
50	0x3e2e22f7	0.17005526
51	0xbede16bb	-0.43376717
52	0xbcf6a1b2	-0.0301064
53	0xbef27737	-0.4735658
54	0x3eb737c4	0.35784733
55	0x3e293be3	0.16526751
56	0xbe2787f0	-0.1636045
57	0x3dadb8be	0.084825024
58	0x3e273fc8	0.16332924
59	0x3e6cec35	0.23136981
60	0xbe0c75f6	-0.13716874
61	0xbe742125	-0.23840769
62	0x3eb9c46f	0.3628268
63	0x3d9b6286	0.07587151

actor.2.weight f4 [64, 64]
0	0x3d762847	0.060097005
1	0x3d6a81b1	0.05725259
2	0xbe1fc543	-0.15602593
3	0x3e0fc290	0.14039063
4	0xbdbc14fa	-0.091836885
5	0x3e3adf6a	0.18249288
6	0x3e9cf125	0.3065273
7	0xbe20c3ca	-0.15699688
8	0xbe414388	-0.18873417
9	0xbdd4a6e0	-0.103833914
10	0x3dcc939c	0.09989092
11	0x3ec54120	0.3852625
12	0x3e345577	0.17610727
13	0x3e441b4c	0.19151038
14	0x3d50c8bc	0.050972685
15	0x3dafc222	0.0858195
16	0x3e763f5c	0.24047607
17	0x3c8c08d6	0.017094057
18	0x3cf0687f	0.029346703
19	0xbe824aa7	-0.2544758
20	0xbddfe503	-0.109323524
21	0x3da9acd0	0.082849145
22	0x3e1fd63c	0.15609068
23	0x3d60f176	0.054917775
24	0x3e3dfafc	0.18552774
25	0xbbaeda3a	-0.005336073
26	0xbe4bc406	-0.19898996
27	0x3e8c94b7	0.2745721
28	0x3b9bb798	0.0047521107
29	0x3c9cd4cb	0.019144436
30	0x3d6d3bea	0.057918467
31	0x3e44a26a	0.19202581
32	0x3ecfb7b8	0.40569854
33	0xbe9a09c7	-0.30085585
34	0x3cfc000b	0.03076174
35	0xbdb58bd0	-0.08864558
36	0xbd9f98c6	-0.07792811
37	0xbe4b36d7	-0.19845138
38	0xbe7faf82	-0.24969295
39	0x3edc7502	0.4305802
40	0x3e19892e	0.14993736
41	0x3df1df45	0.118101634
42	0xbc228931	-0.009920404
43	0xbe846479	-0.25857905
44	0xbdeace00	-0.11465073
45	0xbe36207f	-0.17785834
46	0x3dd960cb	0.10614165
47	0x3c2692c3	0.010166827
48	0xbe9abe35	-0.3022324
49	0x3e74c4fc	0.23903269
50	0x3e9156fa	0.2838667
51	0xbb6b499c	-0.003590203
52	0x3ec00d86	0.37510318
53	0x3e69f084	0.22845656
54	0xbe3bbda2	-0.18334058
55	0xbdedbed0	-0.1160866
56	0xbeb882ab	-0.36037192
57	0x3d3856b8	0.045004576
58	0x3e5b610f	0.21423744
59	0xbd8d1b17	-0.068899326
60	0xbe323324	-0.17402321
61	0xbdfd1f08	-0.12359434
62	0x3beedfa1	0.0072898422
63	0x3ee524b8	0.44754577
64	0xbdd8980e	-0.10575877
65	0x3e33cd6f	0.17558835
66	0x3e07156c	0.13191766
67	0x3df16588	0.11786944
68	0xbd37cdd8	-0.044874042
69	0xbe09a953	-0.13443498
70	0xbe2921c7	-0.16516791
71	0xbeb8fe1b	-0.36131367
72	0x3e0a25db	0.13491003
73	0xbe2c98b5	-0.16855128
74	0x3e340dd6	0.17583403
75	0xbe708da9	-0.23491539
76	0xbd6cfc0f	-0.05785757
77	0xbe3adbfe	-0.18247983
78	0x3d8dc1d5	0.06921736
79	0x3d508386	0.05090668
80	0xbe663da1	-0.22484447
81	0xbdb05092	-0.086091176
82	0x3e8a227f	0.26979443
83	0xbe59d246	-0.21271619
84	0xbd7ce3fd	-0.061740864
85	0x3e8db36a	0.27675945
86	0x3e8d58ed	0.27606907
87	0x3ec286c9	0.37993458
88	0x3e1a05e0	0.15041304
89	0x3dda2d4e	0.106531724
90	0xbe600572	-0.21877077
91	0xbc4a19e4	-0.012335274
92	0x3e4a5dc5	0.19762333
93	0x3da19621	0.07889963
94	0x3c8918ac	0.016735397
95	0xbe33b287	-0.17548572
96	0xbdffe402	-0.12494661
97	0x3e827b42	0.25484663
98	0xbef677a3	-0.4813815
99	0xbd91da92	-0.07121767
100	0x3e810a1f	0.25203034
101	0xbed8cd91	-0.42344335
102	0x3e1b808c	0.15185755
103	0xbd918730	-0.07105863
104	0xbe2af20a	-0.16693893
105	0x3dcb0d90	0.09914696
106	0x3e5cd197	0.21564327
107	0xbedfd482	-0.43716818
108	0x3e47c5d1	0.19509055
109	0x3e78f310	0.24311471
110	0x3d4c8aff	0.049937245
111	0xbe0b1654	-0.13582736
112	0xbe3b580e	-0.18295309
113	0x3e61c6cf	0.22048496
114	0x3c1c7823	0.009550127
115	0x3cac4425	0.021028588
116	0xbde043c7	-0.109504275
117	0xbd491292	-0.049089976
118	0x3bd245f9	0.006417033
119	0x3e884f33	0.26622924
120	0x3dfb4c59	0.122704215
121	0xbcd166c6	-0.025561702
122	0xbf047437	-0.5173983
123	0xbf134de1	-0.5754071
124	0xbe152133	-0.14563446
125	0x3d8b3cee	0.06798731
126	0xbd6ae61c	-0.057348356
127	0xbe837ec4	-0.25682652
128	0xbd054a3d	-0.032541502
129	0x3d85f489	0.06540782
130	0x3cd1fe22	0.025633875
131	0xbeb69f98	-0.35668635
132	0x3e14da62	0.14536431
133	0xbe8b3549	-0.2718909
134	0xbe4f0087	-0.20215045
135	0x3ec7b087	0.39001867
136	0x3e1c0a47	0.15238295
137	0x3e3b7829	0.18307556
138	0x3be53b9e	0.0069956323
139	0x3d1e6d6f	0.038678583
140	0xbe93c099	-0.28857878
141	0x3c4976d8	0.012296401
142	0x3d759e9d	0.05996572
143	0x3f01e7bc	0.50744224
144	0x3d0327ea	0.032020487
145	0x3d677c0b	0.05651478
146	0x3e1602e0	0.14649534
147	0x3d8dff49	0.069334574
148	0x3d19e257	0.03756937
149	0xbe2e07aa	-0.16995111
150	0x3e5b2417	0.21400486
151	0x3ef03035	0.4691178
152	0x3e428346	0.1899539
153	0xbd9e9b79	-0.07744498
154	0xbd6b37d2	-0.05742628
155	0x3e82cf71	0.2554889
156	0x3dcf8e39	0.10134549
157	0xbde47309	-0.11154754
158	0xbe300c01	-0.17192079
159	0x3c46688c	0.012109887
160	0x3d6e82b4	0.058230117
161	0x3e6bce98	0.23028028
162	0x3e0d10e8	0.1377598
163	0x3e07721e	0.13227126
164	0x3def973b	0.11698767
165	0xbd42b74f	-0.047538098
166	0xbe31823c	-0.17334837
167	0x3e085c11	0.1331637
168	0x3dcc1854	0.09965578
169	0x3ef20da7	0.4727604
170	0x3d9f57ed	0.077804424
171	0x3e33a783	0.1754437
172	0xbe08788d	-0.13327236
173	0xbdc5009a	-0.09619255
174	0xbe7ae293	-0.24500494
175	0x3ecb4708	0.3970263
176	0x3e60d3b2	0.21955755
177	0x3e00d1f2	0.12580088
178	0xbe2e2dd1	-0.17009665
179	0x3c3fd396	0.011708161
180	0xbd514ce1	-0.051098708
181	0xbe5834b7	-0.21113859
182	0xbe39d5e9	-0.18148006
183	0xbdbf377f	-0.09336757
184	0xbe841e61	-0.25804427
185	0xbd7220fc	-0.059113488
186	0xbe6a0f63	-0.22857432
187	0x3e885e3d	0.26634398
188	0x3d0a0152	0.033692665
189	0xbe91dab7	-0.2848718
190	0x3bab0fd3	0.0052203923
191	0xbe5c233c	-0.21497816
192	0xbc71f98d	-0.01476897
193	0x3e613e8d	0.21996517
194	0x3f0144e7	0.5049576
195	0x3d9362d0	0.07196581
196	0xbe320347	-0.17384063
197	0xbef1a9db	-0.47199902
198	0xbec110c6	-0.3770811
199	0xbc7a7690	-0.015287057
200	0x3d9bbb92	0.076041356
201	0xbe71025f	-0.23536061
202	0xbe7e2809	-0.2481996
203	0x3ea5ba7b	0.32368836
204	0x3e82d3f8	0.25552344
205	0x3e190c9d	0.14946218
206	0x3e89e690	0.26933718
207	0x3e8c8c60	0.27450848
208	0x3cd34735	0.02579079
209	0x3e47d12d	0.19513388
210	0xbcbb46a3	-0.02286083
211	0xbe2aa40a	-0.16664138
212	0x3e4d4a4a	0.2004787
213	0x3d06c6c6	0.03290441
214	0xbd512c94	-0.051067904
215	0x3e7dfed0	0.24804235
216	0xbde0c214	-0.109745175
217	0x3e16edaa	0.14739099
218	0xbc9378b9	-0.018001901
219	0xbd87ce86	-0.06631188
220	0x3e7865f1	0.24257638
221	0x3f0bb5e2	0.54574406
222	0xbd883cc2	-0.06652214
223	0xbe0fe7b5	-0.14053233
224	0x3ea8be98	0.32957911
225	0x3e85a68e	0.26103634
226	0x3b79456f	0.003803577
227	0xbea01cab	-0.31271872
228	0xbec25295	-0.3795363
229	0x3dc0cd32	0.09414138
230	0x3d6f98ac	0.05849521
231	0xbe3ad712	-0.18246105
232	0xbe8952a2	-0.26820856
233	0xbd00c758	-0.03144011
234	0xbe9fc945	-0.31208244
235	0x3e54f15b	0.20795195
236	0xbe932e84	-0.28746426
237	0xbe41f037	-0.18939291
238	0x3dddd134	0.10830918
239	0x3d1ee09c	0.038788423
240	0xbe456ff3	-0.19280986
241	0xbd44a294	-0.04800661
242	0x3d18cdb3	0.037305545
243	0xbe0af1bd	-0.13568778
244	0x3b820558	0.003967922
245	0x3e156d12	0.14592388
246	0xbd787cb2	-0.060665794
247	0xbd76c1fa	-0.060243584
248	0x3e9c6a02	0.30549628
249	0x3d608484	0.054813877
250	0xbe9a50aa	-0.30139667
251	0x3c8a7d03	0.016905313
252	0xbe29484f	-0.1653149
253	0x3e20f8c3	0.15719895
254	0x3e8f7e42	0.28026015
255	0xbd212fed	-0.039352346

actor.2.bias f4 [64]
0	0x3cc33319	0.023828076
1	0xbe28ec26	-0.16496333
2	0xbd078aee	-0.033091478
3	0x3d40d2f8	0.047076195
4	0x3dc86a29	0.097858734
5	0xbe7a8f98	-0.24468839
6	0x3d8bb6f0	0.06822002
7	0x3dfc0e5a	0.12307425
8	0xbcd4f7a5	-0.025996992
9	0x3e8a7e9f	0.2704973
10	0xbe4b312e	-0.1984298
11	0xbe0cd059	-0.13751353
12	0x3e35d297	0.17756115
13	0xbdf64592	-0.12024988
14	0x3ca5440e	0.020174053
15	0xbe733afd	-0.23752971
16	0x3e9e8adc	0.30965316
17	0xbdc776db	-0.09739467
18	0xbdfc7976	-0.12327854
19	0xbdcfd7bf	-0.10148572
20	0xbe1d0e80	-0.15337563
21	0x3e5cce9a	0.21563187
22	0xbe49e855	-0.19717534
23	0xbe015dde	-0.12633464
24	0xbd2b6f70	-0.041854322
25	0xbe12050f	-0.14259742
26	0x3e914b22	0.28377634
27	0xbcef65cb	-0.029223343
28	0x3db1e79b	0.08686753
29	0x3eaa5255	0.3326594
30	0xbd3570a7	-0.044296887
31	0xbd61b3d8	-0.055103153
32	0xbea2753b	-0.31730065
33	0xbe8498e8	-0.25897908
34	0x3e78b569	0.24287952
35	0xbe916000	-0.28393555
36	0xbd76db83	-0.060267936
37	0x3d9b64d4	0.07587591
38	0xbe17fca6	-0.14842471
39	0xbe2e6d92	-0.17033985
40	0x3cbe2642	0.023211602
41	0x3e8d6dfe	0.2762298
42	0xbd3fe07f	-0.046844956
43	0x3e8dd069	0.27698067
44	0xbddfbea8	-0.10925037
45	0xbd9a6ce1	-0.07540298
46	0x3e1f8bc5	0.15580662
47	0x3e50e774	0.20400792
48	0x3e296fb5	0.16546519
49	0xbe88a336	-0.2668702
50	0x3cd0da42	0.025494698
51	0x3d914c86	0.07094674
52	0xbdddd227	-0.10831099
53	0xbe74e587	-0.23915683
54	0x3dc9074b	0.09815844
55	0xbe7a0ce9	-0.24418987
56	0xbe1d3aaa	-0.1535441
57	0x3e06305e	0.13104388
58	0x3e5ce049	0.21569933
59	0xbe1d6c76	-0.15373406
60	0x3de7884c	0.113052934
61	0x3e09f110	0.13470864
62	0x3c636c8f	0.013880863
63	0xbe377ccc	-0.179187

actor.4.weight f4 [28, 64]
0	0x3e0e4192	0.138922
1	0xbdc2a3b4	-0.0950388
2	0xbd199e94	-0.037504748
3	0xbdf8d3df	-0.12149786
4	0x3c6d6510	0.014489427
5	0xbe065975	-0.13120063
6	0xbe70b18a	-0.23505226
7	0x3e35fdd3	0.17772608
8	0xbe031b71	-0.12803437
9	0x3e0ae001	0.13562013
10	0x3e2ea5db	0.17055456
11	0x3c610747	0.013734645
12	0xbd765f7d	-0.06014966
13	0xbda2077c	-0.07911584
14	0x3c4d3880	0.012525678
15	0xbdea2d1a	-0.11434384
16	0x3ca7140b	0.0203953
17	0xbccc9d6e	-0.024977412
18	0x3d04bf22	0.03240884
19	0x3de42080	0.111390114
20	0xbcebc1cb	-0.028778931
21	0xbd01cec4	-0.031691328
22	0x3e951c3e	0.2912311
23	0x3d45b9e9	0.048273
24	0x3cbce94e	0.023060467
25	0xbe0093e8	-0.12556422
26	0xbe0a694a	-0.13516727
27	0xbd37ad1e	-0.04484283
28	0xbd837ae0	-0.06419921
29	0xbcb51474	-0.02210448
30	0x3cdb0a9d	0.02673846
31	0x3d40153f	0.04689526
32	0xbd81828f	-0.0632373
33	0x3e2e9378	0.17048442
34	0x3c8d45c1	0.017245175
35	0xbd8eac71	-0.06966484
36	0xbe029db7	-0.12755476
37	0x3dc28a1a	0.09498997
38	0x3e2b9261	0.16755058
39	0x3e0a4d20	0.13505983
40	0x3d97eb1b	0.0741789
41	0xbca64232	-0.020295236
42	0x3d600ebc	0.05470155
43	0x3e5eb38b	0.21748178
44	0x3e2c6ade	0.16837642
45	0x3e10e6b5	0.14150508
46	0x3da46d57	0.080286674
47	0x3c20e727	0.009820736
48	0xbdf30f1d	-0.11868117
49	0x3db6a5f7	0.08918374
50	0x3c027e10	0.007964626
51	0x3dbabd7c	0.091181725
52	0x3dfefa3a	0.12450071
53	0x3db30baa	0.08742459
54	0xbd6d1854	-0.05788453
55	0x3d8f9d5b	0.07012435
56	0x3d96d363	0.073645376
57	0xbd138558	-0.03601584
58	0xbdf24c9e	-0.1183102
59	0xbc10d421	-0.008839638
60	0xbe1d51d2	-0.15363243
61	0x3d243d66	0.040097617
62	0xbbf1081b	-0.0073557026
63	0xbc85897b	-0.016300907
64	0x3c985791	0.018596442
65	0x3cbdb8df	0.023159442
66	0x3d830be3	0.063987516
67	0x3dbfea71	0.09370888
68	0x3d05683b	0.032570105
69	0xbb2e1415	-0.0026562263
70	0xbdd9a58c	-0.10627279
71	0x3cc06cf7	0.023489458
72	0xbdec4a32	-0.11537589
73	0x3d6567b2	0.056007095
74	0x3e2e8f09	0.17046751
75	0xbda82560	-0.08210254
76	0xbe6115d9	-0.2198099
77	0xbd2ed9ed	-0.0426883
78	0xbbc0dd12	-0.0058857286
79	0xbdbc097f	-0.09181499
80	0xbd0d7c5c	-0.034542426
81	0xbd1a2b08	-0.037638694
82	0x3d747f3a	0.059691645
83	0x3da832b9	0.082127996
84	0x3d90e7d4	0.07075468
85	0x3d762735	0.060095984
86	0x3de27fc8	0.110595286
87	0x3cb13286	0.021630537
88	0x3d4479da	0.04796777
89	0xbcb04bc0	-0.021520495
90	0xbd21d402	-0.039508827
91	0xbd677b1a	-0.056513883
92	0xbe134a1d	-0.1438374
93	0x3df9da29	0.12199814
94	0xbc82215e	-0.015885051
95	0x3da4beab	0.080441795
96	0xbe0d735e	-0.1381354
97	0x3c2bea7d	0.010492918
98	0x3e1b76b2	0.15181997
99	0xbe2b6589	-0.16737951
100	0xbd7847eb	-0.06061546
101	0x3db6fd45	0.08935026
102	0x3dcb4be8	0.09926587
103	0x3d7aa0d8	0.06118855
104	0xbc944931	-0.018101307
105	0xbd5cac7d	-0.053875435
106	0xbc191122	-0.009342464
107	0x3dd36c7a	0.10323425
108	0x3de1eb9c	0.11031267
109	0x3dd8f33c	0.10593268
110	0xbd56fdc7	-0.052488115
111	0xbd0338f2	-0.03203673
112	0xbded5ddb	-0.11590167
113	0x3db5b617	0.088726215
114	0xbdf91632	-0.121624365
115	0x3ca84227	0.020539356
116	0x3cc34c11	0.023839982
117	0x3d4619b0	0.04836434
118	0xbdf5d33c	-0.120031804
119	0x3d7eb8ad	0.06218784
120	0x3d961acc	0.0732933
121	0x3d6f94a1	0.058491353
122	0xbce6945d	-0.028146917
123	0x3d1c2ba9	0.038127575
124	0xbda3a1c7	-0.07989841
125	0x3b0da473	0.0021612912
126	0x3bef8dc1	0.0073105996
127	0xbd987357	-0.07443874
128	0x3c374a48	0.011187144
129	0xbc9f5e32	-0.019454096
130	0x3c463cc3	0.012099448
131	0x3b494c51	0.0030715654
132	0x3bbcac16	0.005757819
133	0xbda8c4ab	-0.082406364
134	0xbe14d1b3	-0.14533119
135	0x3e03c5d4	0.12868434
136	0xbdcdd251	-0.1004988
137	0x3dbfa079	0.093567796
138	0x3df89822	0.12138392
139	0xbde684f7	-0.1125583
140	0xbdd7cf98	-0.10537642
141	0x3cfaae69	0.030600743
142	0x3ce6b1a2	0.028160874
143	0xbd7ac69b	-0.06122456
144	0x3cf177b5	0.029476026
145	0xba7f5b14	-0.000974105
146	0x3d81cacc	0.063375086
147	0x3bd58548	0.0065161325
148	0xbce40ef0	-0.027839154
149	0x3ca942e3	0.020661777
150	0x3db2d6f7	0.087324075
151	0xbc268072	-0.01016246
152	0xbd6b74fe	-0.05748462
153	0xbd2c6e87	-0.042097595
154	0x3bdf0359	0.006805819
155	0xbc661460	-0.014042944
156	0xbde0c468	-0.109749615
157	0x3d97af19	0.07406444
158	0x3d55759e	0.05211412
159	0x3cf2b3a5	0.029626677
160	0xbe212a4a	-0.15738788
161	0x3d40eb59	0.047099445
162	0x3da1c5d3	0.0789906
163	0xbdf9f6cb	-0.12205275
164	0xbdfbd90e	-0.12297259
165	0x3d021a01	0.03176308
166	0x3ce45c83	0.027876144
167	0x3c9fe483	0.019518143
168	0xbd221158	-0.03956732
169	0x3cf85c53	0.030317461
170	0x3bc8e3c6	0.0061306683
171	0x3e21f55d	0.15816255
172	0x3c13b062	0.009014221
173	0x3dc052d0	0.09390795
174	0x3da51adc	0.08061764
175	0xbbea9049	-0.0071583134
176	0xbc3ab7d1	-0.011396364
177	0xbd568aff	-0.05237865
178	0x3d051443	0.032490026
179	0x3d155731	0.036460105
180	0x3db71e61	0.08941341
181	0xbd83251f	-0.06403565
182	0xbd9b89c5	-0.07594637
183	0xbcd15bc1	-0.025556447
184	0x3b4a1b03	0.0030838854
185	0x3deb620b	0.114933096
186	0xbd0c0d78	-0.034192532
187	0x3d0abc2e	0.03387087
188	0xbd656c1d	-0.056011308
189	0x3dae531d	0.08511946
190	0x3dbf9c51	0.09355987
191	0xbd5e4df7	-0.05427357
192	0x3d21237a	0.039340474
193	0xbd9cf4a6	-0.076638505
194	0x3d10bf0e	0.035338454
195	0xbe007094	-0.12542945
196	0x3cce62b7	0.025193555
197	0xbe49c2b8	-0.19703186
198	0xbd870724	-0.06593159
199	0x3e659403	0.22419743
200	0xbe1caffe	-0.1530151
201	0x3e44da6c	0.19223946
202	0x3c4dcf62	0.012561651
203	0xbdf635a6	-0.120219514
204	0x3a7896e7	0.00094829354
205	0xbe23ce0c	-0.1599657
206	0x3cf3c276	0.029755812
207	0xbe3c04e2	-0.18361238
208	0x3e5ad953	0.21371965
209	0xbe49f0b6	-0.1972073
210	0xbda89704	-0.08231929
211	0xbdcda787	-0.10041719
212	0xbd0f0d64	-0.03492488
213	0x3e0058d9	0.12533893
214	0xbd3fcb71	-0.046824876
215	0xbcafa30a	-0.021440048
216	0xbda286d5	-0.079358734
217	0xbe17033b	-0.14747326
218	0x3e0d5ec5	0.13805683
219	0xba0c437f	-0.0005350634
220	0xbdc9a312	-0.09845556
221	0x3e079c63	0.1324325
222	0xbd51b786	-0.051200412
223	0xbd562763	-0.052283656
224	0xbe24bfff	-0.16088866
225	0xbcb3b33a	-0.021936048
226	0x3e150e63	0.1455627
227	0xbe4db692	-0.20089176
228	0xbd8f2da3	-0.069911264
229	0x3ddc8165	0.107668675
230	0xbe0d4c60	-0.13798666
231	0xbd29b7c0	-0.041435003
232	0xbd62c0fe	-0.055359833
233	0x3de0166c	0.10941777
234	0x3dfe9ace	0.124318704
235	0x3e8b8556	0.27250165
236	0x3d05fcf6	0.032711945
237	0x3c4433f5	0.011975278
238	0x3e182271	0.14856888
239	0x3e0401e7	0.1289135
240	0x3d1a9821	0.037742738
241	0xbde63600	-0.112407684
242	0xbdb89bfb	-0.09014126
243	0xbd28651c	-0.04111205
244	0xbd734f23	-0.059401643
245	0xbdf4339f	-0.119239084
246	0xbdb8682b	-0.090042435
247	0xbd0e3a3a	-0.034723498
248	0xbd56e320	-0.052462697
249	0xbc9cea30	-0.019154638
250	0x3d38ac91	0.045086447
251	0xbd23e85e	-0.040016524
252	0x3d3e4ba7	0.046458866
253	0x3ce17630	0.027522177
254	0x3ddf8505	0.10914043
255	0xbe3317c5	-0.17489536

actor.4.bias f4 [28]
0	0xbdc2eba4	-0.09517601
1	0x3e50d766	0.20394668
2	0x3dbd9eff	0.09258842
3	0x3e71648d	0.23573513
4	0x3de516af	0.11185967
5	0x3df90c37	0.12160533
6	0x3df2b34e	0.11850606
7	0x3dc90d06	0.09816937
8	0x3e0f64b7	0.14003263
9	0x3e077880	0.13229561
10	0xbca1c215	-0.019745866
11	0xbc625246	-0.013813561
12	0x3ddec5e3	0.10877588
13	0x3d837bbf	0.06420087
14	0x3d987447	0.07444053
15	0x3dec89aa	0.11549695
16	0x3c3f3603	0.011670592
17	0xbd2c82b6	-0.042116843
18	0x3d89cbd2	0.06728329
19	0x3b3f39e3	0.002917879
20	0x3dcabb52	0.0989901
21	0x3d6baf32	0.057540126
22	0x3d09583c	0.033531412
23	0xbcdcd184	-0.026955374
24	0xbd9b7dff	-0.07592391
25	0xbd6dbf0c	-0.058043525
26	0xbd8e022b	-0.06934007
27	0xbe854927	-0.26032373
